…
[*] Loaded dataset 'peptides-functional' from 'OGB':
  Data(edge_index=[2, 4773974], edge_attr=[4773974, 3], x=[2344859, 9], y=[15535, 10])
  undirected: True
  num graphs: 15535
  avg num_nodes/graph: 150
  num node features: 9
  num edge features: 3
  num classes: 10
Precomputing Positional Encoding statistics: ['LapPE'] for all graphs...
  ...estimated to be undirected: True
Done! Took 00:00:50.89
GraphGymModule(
  (model): SANTransformer(
    (encoder): FeatureEncoder(
      (node_encoder): Concat2NodeEncoder(
        (encoder1): AtomEncoder(
          (atom_embedding_list): ModuleList(
            (0): Embedding(119, 68)
            (1): Embedding(5, 68)
            (2-3): 2 x Embedding(12, 68)
            (4): Embedding(10, 68)
            (5-6): 2 x Embedding(6, 68)
            (7-8): 2 x Embedding(2, 68)
          )
        )
        (encoder2): LapPENodeEncoder(
          (linear_A): Linear(in_features=2, out_features=16, bias=True)
          (pe_encoder): TransformerEncoder(
            (layers): ModuleList(
              (0-1): 2 x TransformerEncoderLayer(
                (self_attn): MultiheadAttention(
                  (out_proj): NonDynamicallyQuantizableLinear(in_features=16, out_features=16, bias=True)
                )
                (linear1): Linear(in_features=16, out_features=2048, bias=True)
                (dropout): Dropout(p=0.1, inplace=False)
                (linear2): Linear(in_features=2048, out_features=16, bias=True)
                (norm1): LayerNorm((16,), eps=1e-05, elementwise_affine=True)
                (norm2): LayerNorm((16,), eps=1e-05, elementwise_affine=True)
                (dropout1): Dropout(p=0.1, inplace=False)
                (dropout2): Dropout(p=0.1, inplace=False)
              )
            )
          )
        )
      )
      (edge_encoder): BondEncoder(
        (bond_embedding_list): ModuleList(
          (0): Embedding(5, 84)
          (1): Embedding(6, 84)
          (2): Embedding(2, 84)
        )
      )
    )
    (trf_layers): Sequential(
      (0): SANLayer(in_channels=84, out_channels=84, heads=4, residual=True)
      (1): SANLayer(in_channels=84, out_channels=84, heads=4, residual=True)
      (2): SANLayer(in_channels=84, out_channels=84, heads=4, residual=True)
      (3): SANLayer(in_channels=84, out_channels=84, heads=4, residual=True)
    )
    (post_mp): GNNGraphHead(
      (layer_post_mp): MLP(
        (model): Sequential(
          (0): Linear(
            (model): Linear(84, 10, bias=True)
          )
        )
      )
    )
  )
)
accelerator: cuda
benchmark: False
bn:
  eps: 1e-05
  mom: 0.1
cfg_dest: config.yaml
custom_metrics: []
dataset:
  cache_load: False
  cache_save: False
  dir: ./datasets
  edge_dim: 128
  edge_encoder: True
  edge_encoder_bn: False
  edge_encoder_name: Bond
  edge_encoder_num_types: 0
  edge_message_ratio: 0.8
  edge_negative_sampling_ratio: 1.0
…
